model/model.pth (torch, 16799 bytes, 4 tensors)

linear1.weight f4 [256, 11]
000000 56 6a 23 bc 93 0f 0a 3f 21 0b 7f bd a5 8f 36 3d
       -0.009974083 0.53930014 -0.062266473 0.044570584
000010 09 63 ed be 5d db 68 bd 87 2d 0f 3e bd 24 4b be
       -0.4636462 -0.056849826 0.13982211 -0.19838233
000020 c6 b6 f9 3e da fc 99 bd b8 fd 8c 3e 17 99 36 3e
       0.48772258 -0.07518931 0.27537322 0.17831837
000030 a3 31 95 3a 59 83 03 be 59 5f 38 bd b8 02 a9 be
       0.0011382591 -0.12843074 -0.045012806 -0.33009887
000040 f9 01 92 be 16 15 57 3e ad 98 6e be f9 b9 aa be
       -0.2851713 0.21004137 -0.23300429 -0.3334501
000050 53 93 8f be 25 4a 32 3e 5c 76 50 be 80 9c 1e 3b
       -0.28042087 0.17411096 -0.2035765 0.0024202168
000060 68 b2 33 be 84 24 76 bd e0 ea 32 3d f9 a0 23 be
       -0.17548525 -0.060093418 0.043681026 -0.15979375
000070 34 87 44 be 42 eb 10 be 80 df d5 3d 88 b0 98 be
       -0.19192201 -0.14152244 0.1044302 -0.29822183
000080 90 9b 62 be bf 27 57 3e 5e de da 3d c4 9e 92 3e
       -0.22129655 0.21011256 0.106869444 0.28636754
000090 ba 20 1a be 50 d0 af 3d b5 50 86 be 26 80 29 be
       -0.15051547 0.08584654 -0.2623345 -0.16552791
0000a0 44 ef db bd 89 23 93 be a8 e4 c4 3d 16 0d 71 be
       -0.10738996 -0.2873805 0.09613925 -0.23540148
0000b0 06 72 43 be d1 b3 39 3e ac 5a 03 be 2f 76 88 3e
       -0.19086465 0.18135001 -0.12827557 0.26652667
0000c0 cf 60 8d be 0d 94 b2 be 0d 5d 3e 3d 56 c7 b4 be
       -0.27612922 -0.3487858 0.04647546 -0.3530833
0000d0 c7 a1 c8 be bd c2 b0 3e a6 39 83 be 3f 56 1f be
       -0.39185926 0.34523574 -0.2562992 -0.15560244
0000e0 e1 f0 8a be 6c 47 e8 3d 80 9f 71 bd 50 f1 bf bc
       -0.271369 0.11341748 -0.05899 -0.023430496
0000f0 0c 05 87 3d 0d 08 67 3e ec 46 2c be 97 cd 9a bd
       0.065927595 0.22561665 -0.1682393 -0.075587444
000100 ab 44 5b bd 45 d3 88 be 4a 30 21 bf d4 09 b5 3e
       -0.053532284 -0.26723686 -0.6296431 0.3535906
000110 58 c4 9a 3e e3 81 f2 3d 3d 5d 4d 3e 87 09 8b bd
       0.30227923 0.1184118 0.20055099 -0.067889266
000120 4f 9e 30 3e 6b 36 21 be d1 89 36 3c d8 cf 57 3d
       0.1724789 -0.15743415 0.011141256 0.05268845
000130 88 ba 2c be de 03 2c 3c f2 8f f9 3e 64 af e6 be
       -0.16868031 0.010498969 0.48742634 -0.45055687
000140 c0 14 2a 3e 38 7b 0c be e8 85 44 bd 81 98 89 3e
       0.16609478 -0.13718879 -0.047979265 0.26874164
000150 de 88 31 be 11 d8 6e 3e 5f 1b 95 bd ec 81 6b 3e
       -0.17337367 0.2332461 -0.07280611 0.2299878
000160 2e eb 3c be f0 0d 65 3e 7a 66 01 be 98 69 38 be
       -0.18449089 0.22368598 -0.12636748 -0.18009031
000170 63 5e 87 3a a9 44 a7 bd d6 62 d4 bd ff fa 29 bd
       0.0010327812 -0.08167393 -0.10370414 -0.041499134
000180 5a e1 cf 3d ed d4 83 be 15 69 1e bb 6d 2d aa 3e
       0.10150404 -0.25748387 -0.002417152 0.33237782
000190 90 19 5d 3d 04 7e 96 be 1b 6d 6f bd bb 17 e2 ba
       0.053979456 -0.29393017 -0.05845366 -0.0017249504
0001a0 cf 06 e2 bd 58 a2 8f be af 00 3b be 4b 5c 93 be
       -0.11036455 -0.28053546 -0.1826198 -0.2878135
0001b0 42 b8 68 3e d0 18 cb 3d 03 2d 80 bd b7 95 bc 3e
       0.22726539 0.09916842 -0.06258585 0.36832973
0001c0 75 3c 1e bd 0e 65 dc bd 16 a8 b1 3d 23 57 1c ba
       -0.038631875 -0.10761462 0.08674638 -0.0005963912
0001d0 a3 6a 9e 3d e4 7f 48 3e 4a 5c 9b 3e 20 fb 86 3e
       0.07735183 0.19580036 0.30343848 0.26363468
0001e0 07 f7 ad 3d 6b 40 f3 3e f0 41 21 bf 42 fe cc 3e
       0.08494382 0.47510085 -0.6299124 0.40037733
0001f0 bb 14 ba 3e a3 88 b6 be b5 32 cf bd 75 de 21 3c
       0.3634394 -0.3565112 -0.101170935 0.009879698
000200 9d 1c 13 be a7 62 8e 3e e5 66 b0 3e 62 13 6b 3e
       -0.14366384 0.2780964 0.34453502 0.22956613
000210 ac 09 03 3e f6 59 05 3e 59 f1 9d 3e cc 90 a7 be
       0.12796658 0.13022599 0.30848196 -0.3272766
000220 bc b2 f9 bd e9 bf 96 be 05 38 10 3e 44 13 f5 3e
       -0.12192294 -0.2944329 0.1408387 0.4786626
000230 f7 6b 9d 3e 08 1b f3 3e 34 17 26 bd b5 89 8c 3e
       0.30746433 0.4748156 -0.040549472 0.27448812
000240 35 c7 4d 3e 9e ac f2 3e 68 4a 96 3d 71 75 1c bd
       0.20095523 0.4739732 0.073384106 -0.03819794
000250 f4 43 4b be c2 18 82 bd cb 7f d9 3d 30 aa b9 3e
       -0.19850141 -0.063523784 0.10620078 0.36262655
000260 40 4e 88 3d 56 f5 2f be 12 65 50 be 24 92 7d be
       0.0665555 -0.17183432 -0.20351055 -0.2476278
000270 fc 84 c9 3e 62 1e 15 be 2e e7 9a 3d 13 2e 2e bd
       0.39359272 -0.14562371 0.07563625 -0.04252441
000280 4d d5 15 3e 46 37 da bd 16 7d bc 3c d0 1e 50 be
       0.14632149 -0.10655074 0.023008864 -0.20324254
000290 d6 85 17 3c 86 5a 8c 3e d6 d8 1f bd 82 53 c9 be
       0.009248218 0.27412814 -0.03902515 -0.39321524
0002a0 0f 20 fe bc 32 11 dd bd ee e4 d6 be dd 0c 95 3d
       -0.031021146 -0.10794295 -0.41971534 0.07277844
0002b0 6a 65 e2 bd 74 08 52 bd 25 b6 98 3e a0 55 4b be
       -0.110544994 -0.051277593 0.29826465 -0.19856882
0002c0 c2 7a 8c bd f7 ee 41 bd dd f9 3f 3e c2 67 c8 3e
       -0.06859352 -0.047347035 0.18747659 0.3914166
0002d0 e7 e3 22 bf b3 50 dd bc b3 7d 82 be 2c f4 0f 3f
       -0.63629 -0.02701602 -0.25486526 0.5623195
0002e0 75 ce eb be 96 70 49 bf 33 78 0a bf 1d 02 0d bd
       -0.46055952 -0.7868742 -0.5408966 -0.034425844
0002f0 73 e3 fa bb 98 db 53 be 86 d7 83 be e2 2d 09 3f
       -0.0076565086 -0.20689237 -0.2575037 0.53585637
000300 a9 c0 f5 bc e4 a9 f9 3e fd 00 c4 be 09 ad b6 3d
       -0.029999094 0.4876243 -0.38282004 0.089197226
000310 48 a8 e9 bd 59 c0 21 3e 87 42 b6 3e 0f 8e 79 bd
       -0.1140905 0.15796031 0.3559763 -0.060926493
000320 0f 08 3f bd de d2 81 be 4d b0 15 3d 3f 34 83 be
       -0.046638545 -0.2535619 0.036545087 -0.25625798
000330 5d e8 b6 3e 42 1b cc 3e b4 96 83 3d db ba d3 be
       0.35724154 0.39864546 0.06425229 -0.41353497
000340 d4 f4 ac be a7 1b a5 bc 1d 52 03 3f 1a 47 9f be
       -0.3378054 -0.020154787 0.5129717 -0.31108934
000350 10 98 46 be 28 ab 85 3c 33 41 bf bd 63 b9 59 3e
       -0.19393945 0.016316965 -0.09338608 0.21262126
000360 38 91 95 3e 84 be 7a 3e f9 d1 10 3d 68 8f 19 be
       0.29212356 0.24486738 0.035356496 -0.14996111
000370 93 0f 03 bf aa 25 dc 3d b3 44 93 3e d6 de b3 be
       -0.5119564 0.10749371 0.2876335 -0.35130948
000380 eb bf ae 3e 9d 22 0f bf 00 89 b1 3e ad 30 d7 be
       0.34130797 -0.5591219 0.34674835 -0.42029324
000390 68 ed 74 3e b0 f7 bd bd 97 7a b4 3e 3c 34 31 3d
       0.23918688 -0.09275758 0.3524978 0.043262705
0003a0 41 06 c2 3d 1a c2 4c be 71 ba 88 be 1b 36 19 3e
       0.09473849 -0.19995919 -0.26704744 0.14962046
0003b0 db fb de 3d fe 7b ad bd 56 e6 cd bb 5c 79 0e be
       0.10887881 -0.08470915 -0.0062835617 -0.13913482
0003c0 b0 c9 75 be 3a 00 8c 3d 76 6a 0b be 40 30 3c bd
       -0.24002719 0.06835981 -0.1361483 -0.045944452
0003d0 f6 27 31 be d9 51 6f be 83 95 bc be 43 44 b0 3e
       -0.173004 -0.23371066 -0.36832818 0.3442708
0003e0 d3 49 9b 3e 24 87 b7 be 3f 60 30 bf d6 6b 99 3e
       0.3032976 -0.35845292 -0.6889686 0.29965085
0003f0 72 1d 89 3e 99 7f 09 be cf 9f b2 be fc db 0a 3d
       0.26780277 -0.13427581 -0.3488755 0.0339012

linear1.bias f4 [256]
000000 f7 79 7c 3c 4a c7 95 3d cc e1 36 be d1 88 61 be
       0.015409938 0.07313402 -0.17859572 -0.22024848
000010 5f e2 49 bd 49 c7 95 be 7c 67 9e 3e ab b3 ed bd
       -0.04928815 -0.29253605 0.30938327 -0.116065346
000020 d7 b6 7e be d9 0f 43 3d 2b e6 4f be 4c d5 96 be
       -0.24874435 0.047622535 -0.20302646 -0.29459608
000030 93 5b 82 be c7 4f bd bd 11 aa 0d 3e 7b b4 c9 3d
       -0.2546049 -0.09243732 0.13834406 0.09848877
000040 29 6d 99 3d f1 3d 54 3d 94 97 27 be 76 3e 31 3e
       0.07491524 0.051816884 -0.16366416 0.17308983
000050 26 00 cc 3d f2 7f d2 be bf be 22 3d 63 e7 f3 3c
       0.09960966 -0.4111324 0.03973269 0.02977342
000060 eb 1c b6 3e 9b ce 88 3e 85 6b 40 be 20 57 63 3c
       0.35568938 0.26720127 -0.18791015 0.013875753
000070 4a 64 8c 3e a8 4d c8 bd e9 06 a7 3d 49 26 33 bd
       0.27420264 -0.09780437 0.08155615 -0.043737683
000080 6f 80 b6 3e 57 45 e6 bd 10 be 84 be e0 96 23 be
       0.35644862 -0.11243694 -0.25926256 -0.15975523
000090 0a cd 8b be 22 d6 64 be 65 5f 26 3f 6f 54 a0 3c
       -0.2730487 -0.2234731 0.6498931 0.019571511
0000a0 2a cf bf 3c e4 1f 50 be 98 42 37 3e 31 66 93 be
       0.023414213 -0.20324665 0.17896497 -0.28788903
0000b0 99 3a 5b be 43 71 78 bd ec 1f 8c 3c 93 ee 60 3e
       -0.21409072 -0.06065489 0.017105065 0.21966009
0000c0 f5 7d f0 bd ee e5 3f 3e c6 0c bd 3d cc df 85 3d
       -0.117427744 0.18740055 0.09230952 0.065368265
0000d0 c7 f3 09 be 83 16 7c 3c d8 16 2a be ab c9 18 bd
       -0.134719 0.015386227 -0.16610277 -0.0373017
0000e0 25 b3 0a 3e 97 05 2c be 5f fe 07 3e 96 c1 9a be
       0.135449 -0.16799007 0.13280629 -0.3022582
0000f0 c0 53 86 3e 9a 7d 29 bc 73 e0 08 be 4c e1 5d be
       0.2623577 -0.010344887 -0.1336687 -0.21667975
000100 77 63 08 be 9d 0f 0b bd d3 d4 dc 3d 60 d2 f5 bd
       -0.13319193 -0.033950437 0.107827805 -0.120030165
000110 44 f2 18 be 06 d3 f6 be a9 50 66 bd 7e 27 5f 3e
       -0.14936167 -0.48207873 -0.056229267 0.21792409
000120 68 b1 44 be ec ef ae be 35 fc 91 3e 47 5a ad 3c
       -0.192083 -0.3416742 0.2851273 0.021161212
000130 84 ea f3 bd 17 98 7f bd 04 0e e9 3d 5a e2 a1 be
       -0.11909965 -0.062400904 0.113796264 -0.31618005
000140 e2 fd 1f be 4e cb 36 be 51 fc 43 be 27 6a 3f 3e
       -0.15624192 -0.17850992 -0.1913922 0.18692838
000150 5a 00 75 be b4 d7 8d be 33 0a 6b 3d e5 ad 38 3e
       -0.23925915 -0.2770363 0.057382774 0.18035085
000160 78 b8 ae bd 0a 22 d2 3d 46 73 25 bd a2 3c 6a be
       -0.08531278 0.10260399 -0.040393136 -0.22874692
000170 c3 85 ac 3d 4f 5e e3 bd ae 98 86 bd 02 11 0b bd
       0.084239505 -0.11101972 -0.0657209 -0.033951767
000180 a7 7b 96 3e 84 15 15 be 46 41 59 3e c1 a8 99 be
       0.29391214 -0.14558989 0.21216306 -0.30011562
000190 19 52 b4 3d fc 0c 3d 3e 9f 78 2f 3e 8b 5a c2 3d
       0.088047214 0.18461984 0.17135857 0.09489926
0001a0 5c 5d c8 bd 8f 20 7b 3e b9 48 8b 3e 07 16 f9 bd
       -0.09783432 0.24524139 0.2720392 -0.121624045
0001b0 ea dd 27 be b3 a8 6d bd 1b 92 6b 3d 39 6e c2 3d
       -0.16393247 -0.058022212 0.057512384 0.094936796
0001c0 d4 22 08 3e f5 3b 0e be 39 d8 93 3d 89 00 85 bd
       0.13294536 -0.1389006 0.072189756 -0.06494243
0001d0 e6 d1 6c be dc 82 92 be 62 1c 1b 3e d6 7e 2d be
       -0.23126945 -0.28615463 0.15147546 -0.16942915
0001e0 56 9f 1d 3e cf b6 f9 bc d7 1d a6 bd b1 b9 1b 3e
       0.15392813 -0.030482678 -0.0811116 0.15207554
0001f0 ce 88 2b be 1e 89 e5 3b e1 3c 2f 3e da a0 60 3d
       -0.16751406 0.007004871 0.17113067 0.0548409
000200 60 57 1a bd ad 84 e0 be 4b 35 25 bd f9 8d 60 be
       -0.037680984 -0.43851224 -0.040334027 -0.21929158
000210 0b 48 76 be 0d 5a 6f be e4 81 22 3e 03 f5 7e bc
       -0.2405092 -0.23374195 0.15869862 -0.015561345
000220 63 a8 29 3e 68 77 c1 be a4 48 0c be 24 0f 1b be
       0.1656814 -0.37786412 -0.13699585 -0.15142494
000230 17 40 4c be a2 a4 b0 be 69 7d 49 3c 5e a7 2e 3e
       -0.19946323 -0.34500605 0.0122979665 0.17056033
000240 07 ea b0 3e 99 0d e5 3d 99 30 50 be 5c 6a f1 bd
       0.3455355 0.11184234 -0.20331039 -0.117878646
000250 75 45 30 3e 85 9d 80 3d 9c 52 c1 be 03 b3 80 3e
       0.17213996 0.062800445 -0.37758338 0.25136575
000260 5a 9f 15 be ba 03 bf 3e c3 6e d6 3e 49 2d 62 be
       -0.14611569 0.3730753 0.4188138 -0.22087587
000270 f5 9e 9b 3d c2 9e 4f bd b6 2d f0 bc 4f 60 b1 be
       0.07598678 -0.050688513 -0.029318672 -0.3464379
000280 c8 a6 1e be d4 b3 85 3e 6f 11 0b 3e 4a 4d 06 bd
       -0.1549331 0.2611376 0.13580869 -0.032788552
000290 f8 e9 05 3e 0f ed 32 be 08 dd 85 be a5 4d b8 bd
       0.13077533 -0.17473243 -0.26145196 -0.089991845
0002a0 38 ec 28 be 3c c1 4a be 22 42 46 3d b8 39 64 3e
       -0.1649636 -0.19800276 0.048402913 0.22287643
0002b0 44 ba 19 be 25 2f 8f be 07 4f 91 bd b3 89 e3 bd
       -0.15012461 -0.27965656 -0.070951514 -0.111102484
0002c0 45 ff ac 3d c8 5c e2 3e 9a 7d 4e 3d ee 07 b7 3e
       0.08447126 0.4421141 0.05041275 0.35748237
0002d0 4f e4 cf 3c 14 8d 1e be b6 d0 5d 3d a6 1e a0 3e
       0.02537742 -0.15483505 0.05415412 0.31273383
0002e0 ee 04 07 3e b6 58 e2 bd 33 bc 0d bd 1d 60 35 bd
       0.13185474 -0.110520765 -0.03460331 -0.044281114
0002f0 5a cb 2e be 8a b0 3c be f8 5e 8d 3e 2d 6b ac bc
       -0.1706976 -0.1842672 0.27611518 -0.0210472
000300 42 00 32 bd b8 d0 0a bc ed 98 61 3e a7 73 05 be
       -0.043457277 -0.008472614 0.22030993 -0.13032399
000310 f3 03 bc bd 72 02 00 be 3a 3f c6 3d 1a 00 65 be
       -0.09180441 -0.12500933 0.09680028 -0.2236332
000320 95 03 e6 3d f5 9c 7a 3e 86 8c 22 be 78 90 4f 3d
       0.11231152 0.24473937 -0.15873918 0.050674886
000330 b4 d5 34 be dd bc fc 3e 7b 2e 4d be d8 5d 98 be
       -0.17659646 0.4936284 -0.20037262 -0.29759097
000340 8c d0 e8 3c 61 e5 07 3e 60 2a e1 bd 31 b7 9d be
       0.028419755 0.13271095 -0.109944105 -0.30803826
000350 7e bc fb 3d 74 73 b0 3d da 68 29 bd 95 5b e0 3d
       0.122918114 0.08615771 -0.04135976 0.10954968
000360 d2 f8 63 be 10 20 9e 3d 7c 85 83 be 1b 6d 1f 3f
       -0.22262886 0.07720959 -0.25687778 0.62275857
000370 a8 cd e2 bd 7d 78 b4 bc 32 f1 8c be 45 fa 19 be
       -0.11074382 -0.02203011 -0.27527767 -0.15036876
000380 83 9e 53 be 67 e7 13 bd 6e a0 6b be 2c 3f 2e 3d
       -0.20665936 -0.036109354 -0.23010418 0.042540714
000390 24 32 92 3e 2f 2f 23 3e e7 c8 1f be df 56 bf be
       0.2855388 0.15935968 -0.15603982 -0.37370965
0003a0 42 e0 63 3e 37 5e 68 bd 3f 33 a0 be 19 a0 71 be
       0.22253516 -0.056730475 -0.31289098 -0.23596229
0003b0 ff 64 a2 3e dd 0e 0f 3e 63 7d f8 bc d6 a5 38 3d
       0.3171768 0.13970514 -0.030333227 0.04508003
0003c0 c3 7a b5 3d 69 c1 42 3e a9 4b 8d be 7a c7 0c bc
       0.088613056 0.19019093 -0.27596787 -0.008592481
0003d0 d7 62 9a be 47 f8 58 3d 00 c1 a0 be 2e 56 0d be
       -0.30153534 0.05297115 -0.31397247 -0.13802406
0003e0 ab 25 95 be d9 e4 0f 3e c6 3e e3 bd ed ee 20 3e
       -0.291303 0.14052142 -0.110959575 0.15716143
0003f0 c5 f1 ed 3d bf 78 94 be b8 9b 9d 3d 73 ae ed bd
       0.116183795 -0.28998372 0.076957166 -0.11605539

linear2.weight f4 [3, 256]
000000 da 29 10 be de fd 5e 3e 20 e0 3a bb b7 0e d7 bd
       -0.14078465 0.2177653 -0.0028514937 -0.105008535
000010 86 e6 5d be 1c 92 56 3d f9 5c 69 3e da 24 a0 bd
       -0.21669969 0.052385435 0.22789373 -0.07819529
000020 34 5a 31 bc 74 f1 28 3a 68 2d 30 bd f6 e7 ea be
       -0.010824729 0.0006444671 -0.043012053 -0.45880097
000030 ce 67 80 be 13 06 bc 3b 98 f3 98 3d 75 20 90 be
       -0.25079197 0.005738029 0.07468337 -0.28149763
000040 e1 fa 14 3f f5 b1 50 3e 02 d5 06 bf d7 8a 6f bc
       0.5819531 0.20380385 -0.52668774 -0.014620504
000050 5e 08 b0 3e 3e 78 15 3e 5a fe 06 3f 3f d8 c4 be
       0.34381384 0.1459665 0.5273186 -0.38446233
000060 f5 a5 af 3e 1d d6 8a 3e 23 9a 42 be 62 80 45 3e
       0.34306303 0.2711648 -0.19004111 0.19287255
000070 6c 59 97 3e 80 ec 07 be 25 19 24 3d 2b c7 70 bd
       0.2956041 -0.13273811 0.040063042 -0.05878369
000080 ac 38 83 3e 47 ff 52 be 24 5c db bd 72 7a bd bd
       0.25629175 -0.20605193 -0.10710934 -0.0925187
000090 2c 8d 2d be dc 00 c0 be 07 cd d2 3e c7 c3 6f bd
       -0.16948384 -0.37500656 0.41172048 -0.058536317
0000a0 60 6c c3 be 4b 53 84 be 0d b3 f9 3d ce 71 32 be
       -0.3816862 -0.25844797 0.12192354 -0.17426226
0000b0 e1 bd 9c be 59 0e 11 bf e4 c5 02 3e c7 87 ff 3d
       -0.30613616 -0.5666252 0.12770802 0.12477069
0000c0 72 f6 9c be 62 99 79 3e b0 5f 81 bd 14 af 8b 3e
       -0.30656773 0.24374917 -0.06317079 0.27282012
0000d0 50 1d 80 be cf d2 9c 3e 77 a1 8e 3e d0 cb c8 bc
       -0.25022364 0.30629584 0.27857563 -0.024511248
0000e0 9f d9 bc 3e 47 58 38 be 5d ee 4d 3e d9 ac 1a bf
       0.36884782 -0.18002425 0.2011046 -0.60419995
0000f0 7f 27 e1 3e 1b 42 1e be 56 8e 76 bd ab 95 5f bd
       0.43975446 -0.15454905 -0.060194336 -0.054586094
000100 e7 c5 26 3e 54 41 1d be a7 60 eb 3e 35 64 f3 3e
       0.16286431 -0.15356952 0.45972177 0.4753739
000110 94 26 d7 be bd a2 7c be 7f 18 cb 3a 62 0f b7 3d
       -0.4202162 -0.24671455 0.0015494971 0.08938481
000120 af 64 8c be 4e 2e 2d bf d4 73 6f 3e 88 7d d4 3b
       -0.27420565 -0.6764878 0.23384029 0.006484691
000130 ca c9 15 3e 0f c7 b3 be e6 13 34 bc 16 71 72 be
       0.14627758 -0.35112807 -0.010991072 -0.23675951
000140 52 4f 0e 3e aa 2f 6e bb af 1d 27 bf e2 50 cd 3e
       0.13897446 -0.0036344328 -0.6527967 0.4010077
000150 1e f9 f6 bd b4 4a 17 3d 18 ff 3a be 70 a5 cd 3c
       -0.12059234 0.036936477 -0.18261373 0.0251033
000160 71 40 29 be 50 c4 a4 3e 1b 34 bb bd 2c ed 0e 3d
       -0.16528489 0.32181025 -0.09140798 0.034894153
000170 f4 b6 d8 bc a5 0b 8e be 81 7f eb 3d 3e a9 56 be
       -0.026454426 -0.2774326 0.11498929 -0.20962998
000180 38 b0 9d 3e 59 f3 77 3e be aa ee 3e 2b c9 3a be
       0.30798507 0.24213924 0.4661464 -0.18240802
000190 b1 67 71 3e bb ab 4b 3e ca 8f 93 3d 66 35 08 3e
       0.23574711 0.19889729 0.0720516 0.1330162
0001a0 bb 86 3b be 70 6f a5 3e dc 2d 4d 3d ba 57 2a bf
       -0.18313114 0.32311583 0.050092563 -0.6654011
0001b0 57 da fc be d7 ec 7b bd 9c 1f 68 3e b9 f4 07 3e
       -0.4938533 -0.061505165 0.22668308 0.13276948
0001c0 ae 7b 17 be 4a 0c 8f be e7 c1 b7 3c 73 ad da be
       -0.14793274 -0.27939063 0.022431327 -0.42710456
0001d0 54 72 77 bc 38 d4 01 3d e9 93 aa 3e 7f da 6d be
       -0.015102942 0.03169653 0.33315971 -0.23227881
0001e0 74 15 f7 3e 12 23 3e 3e 58 ff a8 bc 5d f3 86 3e
       0.48258555 0.18568066 -0.02062957 0.26357546
0001f0 e9 13 9d be 37 39 22 3d a4 78 5a 3e 9e 97 11 bf
       -0.30679253 0.039605346 0.21335083 -0.56871974
000200 92 cf 52 3b f2 02 01 be 3d ba e9 bd 7a 86 21 bf
       0.0032167179 -0.1259878 -0.11412475 -0.6309582
000210 64 69 59 bd f9 56 79 3d aa 61 a2 3d 1b fb 06 be
       -0.053079024 0.06087396 0.07928784 -0.13181727
000220 23 b1 b4 3e a6 25 c6 3c 0b e6 4a bc 90 a4 73 bc
       0.35291395 0.024187874 -0.012383948 -0.014870778
000230 e8 1c 25 be d1 e6 4d 3c 06 51 bb be 6d 51 e6 3d
       -0.16124308 0.012567238 -0.36585253 0.112459995
000240 0a c8 25 3e 9f 12 03 bf 2a c3 3b 3e 14 a8 f1 be
       0.1618959 -0.5120029 0.18336168 -0.47198546
000250 3f e8 00 3e 27 81 a7 3e ea b2 1a be f8 49 7b 3e
       0.12588595 0.32715723 -0.15107313 0.24539936
000260 36 95 f4 bc d5 fb 20 3e 77 d0 90 3e 18 a8 15 3c
       -0.029856306 0.15721066 0.28284046 0.009134315
000270 c4 cd b3 3e 61 15 b7 be f8 ad e7 b9 c0 dd 90 bd
       0.35117924 -0.35758498 -0.0004418937 -0.070735455
000280 3e 6d 09 bf 7e bb 5e 3e 34 6e 5e 3e 3f 2e ad be
       -0.53682315 0.2175121 0.21721727 -0.33824345
000290 4f 14 e7 bc a0 cb 8a 3c 1a aa 34 be 3b 8b f7 bd
       -0.028207926 0.0169428 -0.17643014 -0.12087103
0002a0 22 1a 33 bb 75 32 22 be 60 a1 a8 be 78 5a ca 3e
       -0.0027328809 -0.1583956 -0.3293562 0.39522147
0002b0 db 6c 27 be 46 6c 58 3d 49 44 a1 be d1 a0 f4 be
       -0.16350119 0.052837633 -0.3149741 -0.47778943
0002c0 61 e5 18 3e 29 78 d5 3e d6 c5 43 3d fd 18 bb 3d
       0.14931251 0.41693237 0.047796093 0.091356255
0002d0 30 33 c0 3e e5 1b c8 3d 31 80 01 3e a4 cf 2c 3e
       0.37539053 0.097709455 0.12646557 0.16876084
0002e0 d2 88 8e 3e 73 d7 08 bd c9 ab e4 bd fa 81 9c be
       0.2783876 -0.033408593 -0.11165578 -0.30567914
0002f0 1e b9 27 be 25 47 25 be 00 d9 c4 3d 51 cb 8a be
       -0.1637921 -0.1614042 0.09611702 -0.27108243
000300 8a fb 72 bd 2e 5e 8a bd 79 98 a1 3e fe be 0d bd
       -0.059321918 -0.067562446 0.3156164 -0.034605972
000310 bd 67 7d bd 0d 04 1c be 3c 47 c9 be 45 55 88 be
       -0.06186651 -0.1523592 -0.3931216 -0.26627555
000320 46 ad be bd ab d9 c1 3e 58 79 8d bd b9 52 03 be
       -0.09310393 0.3786138 -0.0690791 -0.12824525
000330 43 56 84 bd b4 85 1b 3f 7a 18 5d bd a8 07 75 3d
       -0.064617656 0.6075089 -0.05397842 0.059821755
000340 09 1c 45 3e a8 98 47 3d 8f 39 1a bd c3 35 c2 bd
       0.19248976 0.04872957 -0.03765255 -0.094829105
000350 af d9 80 3c b3 fa a6 bd 72 46 09 bf 7b 9f fd 3c
       0.0157288 -0.08153286 -0.53623116 0.030959835
000360 12 ca c4 bd 27 98 b3 be fe 2e a3 3a 23 95 e8 3e
       -0.09608854 -0.3507702 0.0012449918 0.45426282
000370 60 3e c7 be e0 c2 77 3e 9d b1 55 be fc 13 ce bd
       -0.38914776 0.24195433 -0.20868535 -0.100624055
000380 8c 8b 61 be 9f 5b af 3e 2e 29 a5 3c 94 73 d6 39
       -0.22025889 0.3424959 0.020161238 0.00040903373
000390 1b c8 9a 3d df 3d c9 bd 47 ba 04 be 64 27 ac ba
       0.07557698 -0.09826254 -0.12961684 -0.0013134298
0003a0 cc b7 73 3e 52 fa db bd ce 74 12 3d 6b b2 56 bd
       0.23800582 -0.10741104 0.035755925 -0.052416246
0003b0 50 27 98 3e 12 5b f1 3e 1b c9 fb be 4a 41 08 bd
       0.29717493 0.47139794 -0.4917687 -0.03326539
0003c0 9e e6 ad 3e f9 72 7b 3d dc bd 04 bc 70 b0 8b be
       0.3396501 0.061388943 -0.008101907 -0.2728305
0003d0 34 59 0b 3b d1 b7 00 3f 51 61 1c be db 60 e0 be
       0.0021262886 0.5028048 -0.15271498 -0.43823895
0003e0 50 fd a0 3c 2a 8d c8 3e 68 cb 79 be bf 17 13 3e
       0.019652039 0.391702 -0.24394 0.14364527
0003f0 84 5c b5 bc 7c 81 18 bf 03 5e d8 be b2 90 cf be
       -0.022138841 -0.5957258 -0.42259225 -0.4054008

linear2.bias f4 [3]
000000 0e 86 06 3e d6 2a 1e 3c 52 8e 2b 3b
       0.13137075 0.009653768 0.0026177359
